…
[1;32mSUCCESS: Saving to : /tudelft.net/staff-umbrella/liquidbiopsy/neural-nets/jointomicscomp/results/test v1v2 17-12-2021 11:25:19[0;0m

##########
Selected device: cuda
Running the JointOmicsComp software - A compilation of multi-omic integration models.
[1;32mSUCCESS: Starting Experiment : test[0;0m
[1;32mSUCCESS: Saving to : /tudelft.net/staff-umbrella/liquidbiopsy/neural-nets/jointomicscomp/results/test v1v2 17-12-2021 11:26:01[0;0m

##########
Selected device: cuda
[1;32mSUCCESS: Initialized CrossGeneratingVariationalAutoencoder model.[0;0m
CrossGeneratingVariationalAutoencoder(
  (encoder): ProbabilisticFullyConnectedModule(
    (encode_layers): ModuleList(
      (0): Sequential(
        (0): Linear(in_features=3, out_features=4, bias=True)
        (1): BatchNorm1d(4, eps=1e-05, momentum=0.1, affine=True, track_running_stats=True)
      )
    )
    (drop): Dropout(p=0.0, inplace=False)
  )
  (encoder2): ProbabilisticFullyConnectedModule(
    (encode_layers): ModuleList(
      (0): Sequential(
        (0): Linear(in_features=3, out_features=4, bias=True)
        (1): BatchNorm1d(4, eps=1e-05, momentum=0.1, affine=True, track_running_stats=True)
      )
    )
    (drop): Dropout(p=0.0, inplace=False)
  )
  (decoder): FullyConnectedModule(
    (encode_layers): ModuleList(
      (0): Sequential(
        (0): Linear(in_features=2, out_features=2, bias=True)
        (1): BatchNorm1d(2, eps=1e-05, momentum=0.1, affine=True, track_running_stats=True)
      )
      (1): Sequential(
        (0): Linear(in_features=2, out_features=3, bias=True)
        (1): BatchNorm1d(3, eps=1e-05, momentum=0.1, affine=True, track_running_stats=True)
      )
    )
    (drop): Dropout(p=0.0, inplace=False)
  )
  (loss_fun): MSELoss()
  (decoder2): FullyConnectedModule(
    (encode_layers): ModuleList(
      (0): Sequential(
        (0): Linear(in_features=2, out_features=2, bias=True)
        (1): BatchNorm1d(2, eps=1e-05, momentum=0.1, affine=True, track_running_stats=True)
      )
      (1): Sequential(
        (0): Linear(in_features=2, out_features=3, bias=True)
        (1): BatchNorm1d(3, eps=1e-05, momentum=0.1, affine=True, track_running_stats=True)
      )
    )
    (drop): Dropout(p=0.0, inplace=False)
  )
  (loss_fun2): MSELoss()
)
Number of model parameters: 
98
Loading training and validation data into CrossGeneratingVariationalAutoencoder...
[!] No checkpoint found, start epoch 0
[*] Evaluating epoch 0...
dict_keys(['z-L2', 'z-L1', 'z-cos', 'z-W2', 'mse/1', 'mse/2', 'bce/1', 'bce/2', 'cross-mse/1', 'cross-mse/2', 'cross-bce/1', 'cross-bce/2', 'loss'])
…
[*] Evaluating epoch 3...
--- Training loss:	234.0494
--- Validation loss:	231.7291
[*] Finish training.
Running the JointOmicsComp software - A compilation of multi-omic integration models.
[1;32mSUCCESS: Starting Experiment : test[0;0m
[1;32mSUCCESS: Saving to : /tudelft.net/staff-umbrella/liquidbiopsy/neural-nets/jointomicscomp/results/test v1v2 17-12-2021 11:29:43[0;0m

##########
Selected device: cuda
[1;32mSUCCESS: Initialized CrossGeneratingVariationalAutoencoder model.[0;0m
CrossGeneratingVariationalAutoencoder(
  (encoder): ProbabilisticFullyConnectedModule(
    (encode_layers): ModuleList(
      (0): Linear(in_features=3, out_features=4, bias=True)
    )
    (drop): Dropout(p=0.0, inplace=False)
  )
  (encoder2): ProbabilisticFullyConnectedModule(
    (encode_layers): ModuleList(
      (0): Linear(in_features=3, out_features=4, bias=True)
    )
    (drop): Dropout(p=0.0, inplace=False)
  )
  (decoder): FullyConnectedModule(
    (encode_layers): ModuleList(
      (0): Linear(in_features=2, out_features=2, bias=True)
      (1): Linear(in_features=2, out_features=3, bias=True)
    )
    (drop): Dropout(p=0.0, inplace=False)
  )
  (loss_fun): MSELoss()
  (decoder2): FullyConnectedModule(
    (encode_layers): ModuleList(
      (0): Linear(in_features=2, out_features=2, bias=True)
      (1): Linear(in_features=2, out_features=3, bias=True)
    )
    (drop): Dropout(p=0.0, inplace=False)
  )
  (loss_fun2): MSELoss()
)
Number of model parameters: 
62
Loading training and validation data into CrossGeneratingVariationalAutoencoder...
[!] No checkpoint found, start epoch 0
[*] Evaluating epoch 0...
dict_keys(['z-L2', 'z-L1', 'z-cos', 'z-W2', 'mse/1', 'mse/2', 'bce/1', 'bce/2', 'cross-mse/1', 'cross-mse/2', 'cross-bce/1', 'cross-bce/2', 'loss'])
…
       [-0.30655036,  0.        ]]), 'spearman_p': array([[0.00000000e+00, 8.44441721e-01],
       [4.74644239e-07, 0.00000000e+00]])}
##########

Running the JointOmicsComp software - A compilation of multi-omic integration models.
[1;32mSUCCESS: Starting Experiment : test[0;0m
[1;32mSUCCESS: Saving to : /tudelft.net/staff-umbrella/liquidbiopsy/neural-nets/jointomicscomp/results/test v1v2 17-12-2021 17:19:00[0;0m

##########
Selected device: cuda
[1;32mSUCCESS: Initialized CrossGeneratingVariationalAutoencoder model.[0;0m
CrossGeneratingVariationalAutoencoder(
  (encoder): ProbabilisticFullyConnectedModule(
    (encode_layers): ModuleList(
      (0): Linear(in_features=2, out_features=4, bias=True)
    )
    (drop): Dropout(p=0.0, inplace=False)
  )
  (encoder2): ProbabilisticFullyConnectedModule(
    (encode_layers): ModuleList(
      (0): Linear(in_features=2, out_features=4, bias=True)
    )
    (drop): Dropout(p=0.0, inplace=False)
  )
  (decoder): FullyConnectedModule(
    (encode_layers): ModuleList(
      (0): Linear(in_features=2, out_features=2, bias=True)
      (1): Linear(in_features=2, out_features=2, bias=True)
    )
    (drop): Dropout(p=0.0, inplace=False)
  )
  (loss_fun): MSELoss()
  (decoder2): FullyConnectedModule(
    (encode_layers): ModuleList(
      (0): Linear(in_features=2, out_features=2, bias=True)
      (1): Linear(in_features=2, out_features=2, bias=True)
    )
    (drop): Dropout(p=0.0, inplace=False)
  )
  (loss_fun2): MSELoss()
)
Number of model parameters: 
48
Loading training and validation data into CrossGeneratingVariationalAutoencoder...
[!] No checkpoint found, start epoch 0
[*] Evaluating epoch 0...
dict_keys(['z-L2', 'z-L1', 'z-cos', 'z-W2', 'mse/1', 'mse/2', 'bce/1', 'bce/2', 'cross-mse/1', 'cross-mse/2', 'cross-bce/1', 'cross-bce/2', 'loss'])
…
[1;32mSUCCESS: Running Product-of-Experts MVAE Model[0;0m
EarlyStopping counter: 1 out of 10
EarlyStopping counter: 2 out of 10
EarlyStopping counter: 3 out of 10
EarlyStopping counter: 4 out of 10
====> Epoch: 5	Loss: 44.0522
====> Epoch: 5	Reconstruction Loss: 44.0360
====> Epoch: 5	KLD Loss: -1.2173
====> Epoch: 5	Validation Loss: 15.1721
====> Epoch: 5	Reconstruction Loss: 14.6065
====> Epoch: 5	KLD Loss: -0.5656
EarlyStopping counter: 5 out of 10
[1;32mSUCCESS: Finished training PoE model. Now calculating task results.[0;0m
PoE(
  (omic1_encoder): Encoder(
    (encoder): Sequential(
      (0): Sequential(
        (0): Linear(in_features=3, out_features=2, bias=True)
        (1): BatchNorm1d(2, eps=1e-05, momentum=0.1, affine=True, track_running_stats=True)
        (2): ReLU()
      )
    )
    (fc_mu): Linear(in_features=2, out_features=2, bias=True)
    (fc_var): Linear(in_features=2, out_features=2, bias=True)
  )
  (omic2_encoder): Encoder(
    (encoder): Sequential(
      (0): Sequential(
        (0): Linear(in_features=3, out_features=2, bias=True)
        (1): BatchNorm1d(2, eps=1e-05, momentum=0.1, affine=True, track_running_stats=True)
        (2): ReLU()
      )
    )
    (fc_mu): Linear(in_features=2, out_features=2, bias=True)
    (fc_var): Linear(in_features=2, out_features=2, bias=True)
  )
  (omic1_decoder): Decoder(
    (decoder): Sequential(
      (0): Linear(in_features=2, out_features=2, bias=True)
      (1): BatchNorm1d(2, eps=1e-05, momentum=0.1, affine=True, track_running_stats=True)
      (2): ReLU()
    )
    (final_layer): Sequential(
      (0): Linear(in_features=2, out_features=3, bias=True)
      (1): Sigmoid()
    )
  )
  (omic2_decoder): Decoder(
    (decoder): Sequential(
      (0): Linear(in_features=2, out_features=2, bias=True)
      (1): BatchNorm1d(2, eps=1e-05, momentum=0.1, affine=True, track_running_stats=True)
      (2): ReLU()
    )
    (final_layer): Sequential(
      (0): Linear(in_features=2, out_features=3, bias=True)
      (1): Sigmoid()
    )
  )
  (experts): ProductOfExperts()
)
[1;32mSUCCESS: Extract z1 and z2 for classification[0;0m
Running the JointOmicsComp software - A compilation of multi-omic integration models.
[1;32mSUCCESS: Starting Experiment : test[0;0m
[1;32mSUCCESS: Saving to : /tudelft.net/staff-umbrella/liquidbiopsy/neural-nets/jointomicscomp/results/test v1v2 20-12-2021 19:20:11[0;0m
…
[1;32mSUCCESS: Running Product-of-Experts MVAE Model[0;0m
EarlyStopping counter: 1 out of 10
EarlyStopping counter: 2 out of 10
EarlyStopping counter: 3 out of 10
EarlyStopping counter: 4 out of 10
====> Epoch: 5	Loss: 4.0098
====> Epoch: 5	Reconstruction Loss: 3.9941
====> Epoch: 5	KLD Loss: -1.1762
====> Epoch: 5	Validation Loss: 1.9153
====> Epoch: 5	Reconstruction Loss: 1.3355
====> Epoch: 5	KLD Loss: -0.5799
EarlyStopping counter: 5 out of 10
[1;32mSUCCESS: Finished training PoE model. Now calculating task results.[0;0m
PoE(
  (omic1_encoder): Encoder(
    (encoder): Sequential(
      (0): Sequential(
        (0): Linear(in_features=2, out_features=2, bias=True)
        (1): BatchNorm1d(2, eps=1e-05, momentum=0.1, affine=True, track_running_stats=True)
        (2): ReLU()
      )
    )
    (fc_mu): Linear(in_features=2, out_features=2, bias=True)
    (fc_var): Linear(in_features=2, out_features=2, bias=True)
  )
  (omic2_encoder): Encoder(
    (encoder): Sequential(
      (0): Sequential(
        (0): Linear(in_features=2, out_features=2, bias=True)
        (1): BatchNorm1d(2, eps=1e-05, momentum=0.1, affine=True, track_running_stats=True)
        (2): ReLU()
      )
    )
    (fc_mu): Linear(in_features=2, out_features=2, bias=True)
    (fc_var): Linear(in_features=2, out_features=2, bias=True)
  )
  (omic1_decoder): Decoder(
    (decoder): Sequential(
      (0): Linear(in_features=2, out_features=2, bias=True)
      (1): BatchNorm1d(2, eps=1e-05, momentum=0.1, affine=True, track_running_stats=True)
      (2): ReLU()
    )
    (final_layer): Sequential(
      (0): Linear(in_features=2, out_features=2, bias=True)
      (1): Sigmoid()
    )
  )
  (omic2_decoder): Decoder(
    (decoder): Sequential(
      (0): Linear(in_features=2, out_features=2, bias=True)
      (1): BatchNorm1d(2, eps=1e-05, momentum=0.1, affine=True, track_running_stats=True)
      (2): ReLU()
    )
    (final_layer): Sequential(
      (0): Linear(in_features=2, out_features=2, bias=True)
      (1): Sigmoid()
    )
  )
  (experts): ProductOfExperts()
)
[1;32mSUCCESS: Extract z1 and z2 for classification[0;0m
Saving results
[1;32mSUCCESS: Finished running Product-of-Experts MVAE Model[0;0m
##########

Running the JointOmicsComp software - A compilation of multi-omic integration models.
[1;32mSUCCESS: Starting Experiment : test[0;0m
[1;32mSUCCESS: Saving to : /tudelft.net/staff-umbrella/liquidbiopsy/neural-nets/jointomicscomp/results/test v1v2 21-12-2021 13:14:23[0;0m
…
[1;32mSUCCESS: Running Mixture-of-Experts MVAE Model[0;0m
[!] No checkpoint found, start epoch 0
[*] Evaluating epoch 0...
Running the JointOmicsComp software - A compilation of multi-omic integration models.
[1;32mSUCCESS: Starting Experiment : test[0;0m
[1;32mSUCCESS: Saving to : /tudelft.net/staff-umbrella/liquidbiopsy/neural-nets/jointomicscomp/results/test v1v2 16-01-2022 12:04:32[0;0m

##########
Selected device: cuda
[1;32mSUCCESS: Initialized CrossGeneratingVariationalAutoencoder model.[0;0m
CrossGeneratingVariationalAutoencoder(
  (encoder): ProbabilisticFullyConnectedModule(
    (encode_layers): ModuleList(
      (0): Linear(in_features=3, out_features=4, bias=True)
    )
    (drop): Dropout(p=0.0, inplace=False)
  )
  (encoder2): ProbabilisticFullyConnectedModule(
    (encode_layers): ModuleList(
      (0): Linear(in_features=3, out_features=4, bias=True)
    )
    (drop): Dropout(p=0.0, inplace=False)
  )
  (decoder): FullyConnectedModule(
    (encode_layers): ModuleList(
      (0): Linear(in_features=2, out_features=2, bias=True)
      (1): Linear(in_features=2, out_features=3, bias=True)
    )
    (drop): Dropout(p=0.0, inplace=False)
  )
  (loss_fun): MSELoss()
  (decoder2): FullyConnectedModule(
    (encode_layers): ModuleList(
      (0): Linear(in_features=2, out_features=2, bias=True)
      (1): Linear(in_features=2, out_features=3, bias=True)
    )
    (drop): Dropout(p=0.0, inplace=False)
  )
  (loss_fun2): MSELoss()
)
Number of model parameters: 
62
Loading training and validation data into CrossGeneratingVariationalAutoencoder...
[!] No checkpoint found, start epoch 0
[*] Evaluating epoch 0...
Running the JointOmicsComp software - A compilation of multi-omic integration models.
[1;32mSUCCESS: Starting Experiment : test[0;0m
[1;32mSUCCESS: Saving to : /tudelft.net/staff-umbrella/liquidbiopsy/neural-nets/jointomicscomp/results/test v1v2 16-01-2022 12:05:45[0;0m

##########
Selected device: cuda
[1;32mSUCCESS: Initialized CrossGeneratingVariationalAutoencoder model.[0;0m
CrossGeneratingVariationalAutoencoder(
  (encoder): ProbabilisticFullyConnectedModule(
    (encode_layers): ModuleList(
      (0): Linear(in_features=3, out_features=4, bias=True)
    )
    (drop): Dropout(p=0.0, inplace=False)
  )
  (encoder2): ProbabilisticFullyConnectedModule(
    (encode_layers): ModuleList(
      (0): Linear(in_features=3, out_features=4, bias=True)
    )
    (drop): Dropout(p=0.0, inplace=False)
  )
  (decoder): FullyConnectedModule(
    (encode_layers): ModuleList(
      (0): Linear(in_features=2, out_features=2, bias=True)
      (1): Linear(in_features=2, out_features=3, bias=True)
    )
    (drop): Dropout(p=0.0, inplace=False)
  )
  (loss_fun): MSELoss()
  (decoder2): FullyConnectedModule(
    (encode_layers): ModuleList(
      (0): Linear(in_features=2, out_features=2, bias=True)
      (1): Linear(in_features=2, out_features=3, bias=True)
    )
    (drop): Dropout(p=0.0, inplace=False)
  )
  (loss_fun2): MSELoss()
)
Number of model parameters: 
62
Loading training and validation data into CrossGeneratingVariationalAutoencoder...
[!] No checkpoint found, start epoch 0
[*] Evaluating epoch 0...
Running the JointOmicsComp software - A compilation of multi-omic integration models.
[1;32mSUCCESS: Starting Experiment : test[0;0m
[1;32mSUCCESS: Saving to : /tudelft.net/staff-umbrella/liquidbiopsy/neural-nets/jointomicscomp/results/test v1v2 16-01-2022 12:06:44[0;0m

##########
Selected device: cuda
[1;32mSUCCESS: Initialized CrossGeneratingVariationalAutoencoder model.[0;0m
CrossGeneratingVariationalAutoencoder(
  (encoder): ProbabilisticFullyConnectedModule(
    (encode_layers): ModuleList(
      (0): Linear(in_features=3, out_features=4, bias=True)
    )
    (drop): Dropout(p=0.0, inplace=False)
  )
  (encoder2): ProbabilisticFullyConnectedModule(
    (encode_layers): ModuleList(
      (0): Linear(in_features=3, out_features=4, bias=True)
    )
    (drop): Dropout(p=0.0, inplace=False)
  )
  (decoder): FullyConnectedModule(
    (encode_layers): ModuleList(
      (0): Linear(in_features=2, out_features=2, bias=True)
      (1): Linear(in_features=2, out_features=3, bias=True)
    )
    (drop): Dropout(p=0.0, inplace=False)
  )
  (loss_fun): MSELoss()
  (decoder2): FullyConnectedModule(
    (encode_layers): ModuleList(
      (0): Linear(in_features=2, out_features=2, bias=True)
      (1): Linear(in_features=2, out_features=3, bias=True)
    )
    (drop): Dropout(p=0.0, inplace=False)
  )
  (loss_fun2): MSELoss()
)
Number of model parameters: 
62
Loading training and validation data into CrossGeneratingVariationalAutoencoder...
[!] No checkpoint found, start epoch 0
[*] Evaluating epoch 0...
dict_keys(['z-L2', 'z-L1', 'z-cos', 'z-W2', 'KL/1', 'KL/2', 'mse/1', 'mse/2', 'cross-mse/1', 'cross-mse/2', 'loss'])
…
